ff-net/ffnet_rgb_0203.onnx (onnx, 434447 bytes, 21 tensors)

imageinput_Mean f4 [1, 3, 1, 1]
20.96754 22.631956 22.68366
00000000: 86bd a741 3f0e b541 2378 b541

conv_1_W f4 [32, 3, 2, 2]
-0.07675884 -0.016556727 0.27040026 0.019235708 -0.14232734 -0.19818005 0.1350703 0.20028959
-0.21051313 0.0010326033 -0.12820663 -0.2010514 -0.026799928 0.12837194 0.06562036 0.041036416
0.07493768 -0.15111552 -0.059023514 -0.040321454 -0.073989205 0.09580887 0.19208114 0.1546625
0.08032887 -0.11703731 -0.034415297 0.061006457 0.1628103 0.10036251 0.09252586 0.07215687
0.06537984 0.02708676 0.15020266 0.20208505 -0.23450373 -0.18221755 0.17506005 0.06641888
-0.090274155 0.081689335 -0.17206058 0.10087509 0.105524175 0.1597576 0.06654236 0.13616008
0.15528506 -0.02060277 0.15451694 0.12108468 -0.03294956 -0.08975767 0.14303094 0.205936
-0.13366023 0.06669723 -0.18446042 0.13053332 0.19123562 0.15883084 -0.061594144 0.029927377
0.009888215 0.22788316 0.14823015 -0.15370208 0.17036429 0.056926224 -0.029197143 -0.012383345
0.13269682 0.06400957 0.18217565 0.057216346 0.1827633 0.03992919 0.063988805 -0.06712148
0.016771259 -0.07234404 -0.10854491 -0.114746556 -0.022913579 0.16853881 0.008716045 -0.10689117
-0.13916194 -0.06783805 -0.022560293 -0.14405875 -0.039653905 -0.2455127 0.08167938 -0.09221432
-0.105548896 0.054069363 0.064651705 0.117804244 -0.10948135 -0.045100812 0.012611703 0.09340429
0.015236706 -0.14107528 -0.13963342 -0.21072397 0.88957435 0.43342632 0.5982036 0.51443607
0.88302416 0.7395805 0.8356215 0.4413991 0.8614615 0.72040033 1.0001382 0.7786129
0.0072632744 0.047329415 -0.08346158 0.18974869 0.30661422 -0.060420606 0.23863536 0.011561277
0.072512805 0.3850185 0.10518539 0.18744318 0.08383665 -0.1373613 0.17056893 0.2291045
-0.16681793 0.11012175 0.14559007 0.16835123 -0.079768844 0.089999735 0.097463176 0.16326755
0.17920944 0.14493507 0.079865016 -0.0024715918 0.21988468 0.035821695 -0.1732211 -0.10655226
0.013531691 -0.120554335 0.07428807 0.0148538565 -0.054543536 -0.13479458 0.17614359 -0.14452863
0.18787077 -0.1447747 -0.14161007 -0.1398023 -0.22165436 0.01743266 -0.068102434 0.08906687
0.12356349 -0.008931294 0.12541233 0.11654749 0.21026744 -0.05949599 0.05836729 0.16857491
-0.024662668 0.06865282 0.011704376 0.16305818 0.25803766 0.07451787 0.036365114 0.11433111
0.3149215 0.37017888 0.15861261 0.38307598 0.10640474 0.1836866 -0.07459651 0.21203648
0.07537036 0.040093515 0.15599023 0.3443081 0.10250596 0.00018865056 0.13692282 -0.042534404
-0.10422368 0.19423823 0.21892896 -0.036147133 0.118799195 0.006730182 0.023217332 0.13145085
-0.23753044 -0.062888436 -0.08041939 -0.033139005 -0.2733144 -0.29705393 -0.028388964 -0.087939024
0.24796993 0.18419446 0.09380206 -0.03616131 0.1993994 -0.0476495 0.03655454 0.01893276
-0.06462373 0.064721346 -0.12551755 -0.022202924 -0.053582136 0.13844302 -0.13273619 0.13874985
-0.10976774 0.104061864 0.026232552 0.1740655 0.19314739 -0.10664838 -0.024427867 0.15556048
-0.14497128 -0.027572317 -0.12670451 0.18757235 0.057862792 0.21843424 0.057609376 0.084701866
-0.1160737 0.15245593 0.20907174 0.10675848 -0.095936164 -0.008963264 -0.09994615 -0.112895295
00000000: bd33 9dbd f9a1 87bc e771 8a3e 3494 9d3c
00000010: 42be 11be b6ef 4abe de4f 0a3e b718 4d3e
00000020: c190 57be 6b58 873a 9948 03be 6be0 4dbe
00000030: 868b dbbc ef73 033e f863 863d cd15 283d
00000040: ed78 993d 07be 1abe a4c2 71bd 1c28 25bd
00000050: a787 97bd 7137 c43d ebb0 443e d95f 1e3e
00000060: 7683 a43d 42b1 efbd 0ef7 0cbd e8e1 793d
00000070: beb7 263e dc8a cd3d 337e bd3d fbc6 933d
00000080: dee5 853d 0ee5 dd3c bace 193e 62ef 4e3e
00000090: bf21 70be 3d97 3abe f142 333e 9f06 883d
000000a0: a8e1 b8bd bd4c a73d a630 30be 9997 ce3d
000000b0: 0f1d d83d 7f97 233e 5c47 883d 8c6d 0b3e
000000c0: 0c03 1f3e 24c7 a8bc b039 1e3e 3ffb f73d
000000d0: 1ef6 06bd dfd2 b7bd b476 123e e3e0 523e
000000e0: 3ade 08be 8f98 883d 31e3 3cbe 87aa 053e
000000f0: 45d3 433e 8da4 223e 244a 7cbd 422a f53c
00000100: 2e02 223c 345a 693e a5c9 173e 1464 1dbe
00000110: fa73 2e3e 792b 693d d92e efbc 83e3 4abc
00000120: ade1 073e 7317 833d 418c 3a3e b05b 6a3d
00000130: 4d26 3b3e ca8c 233d 900c 833d fd76 89bd
00000140: e163 893c 1d29 94bd cb4c debd 3e00 ebbd
00000150: 42b5 bbbc 7095 2c3e becd 0e3c c2e9 dabd
00000160: 7880 0ebe adee 8abd 5dd0 b8bc 2384 13be
00000170: 226c 22bd ae67 7bbe 8547 a73d ddda bcbd
00000180: 052a d8bd d677 5d3d 1d68 843d 5a43 f13d
00000190: c237 e0bd a1bb 38bd 51a1 4e3c c04a bf3d
000001a0: 60a3 793c 0a76 10be 10fc 0ebe 06c8 57be
000001b0: 25bb 633f 0eea dd3e df23 193f 15b2 033f
000001c0: df0d 623f 2655 3d3f 4aeb 553f 10ff e13e
000001d0: be88 5c3f 286c 383f 8704 803f 2d53 473f
000001e0: c300 ee3b 7ddc 413d e8ed aabd 7b4d 423e
000001f0: 8afc 9c3e 997b 77bd d45c 743e 836b 3d3c
00000200: 9881 943d 2521 c53e 706b d73d 1bf1 3f3e
00000210: 8db2 ab3d 71a8 0cbe 9fa9 2e3e 5f9a 6a3e
00000220: 52d2 2abe 8387 e13d 9015 153e 4464 2c3e
00000230: d95d a3bd c851 b83d c69a c73d 9c2f 273e
00000240: ae82 373e dc69 143e 4590 a33d 6efa 21bb
00000250: 7329 613e c5b9 123d df60 31be 1238 dabd
00000260: 07b4 5d3c 31e5 f6bd 5824 983d 975d 733c
00000270: 0b69 5fbd 9707 0abe fc5e 343e 50ff 13be
00000280: 3261 403e d23f 14be 3b02 11be 5628 0fbe
00000290: 5cf9 62be f0ce 8e3c 4a79 8bbd b168 b63d
000002a0: db0e fd3d 9054 12bc 176c 003e 73b0 ee3d
000002b0: 5950 573e 11b2 73bd 8a12 6f3d e79e 2c3e
000002c0: 5d09 cabc da99 8c3d b6c3 3f3c b9f8 263e
000002d0: 831d 843e d39c 983d 96f3 143d 6e26 ea3d
000002e0: 643d a13e 1688 bd3e 586b 223e 8922 c43e
000002f0: baea d93d 5718 3c3e 0ec6 98bd 1720 593e
00000300: c65b 9a3d 1939 243d e7bb 1f3e 2749 b03e
00000310: a5ee d13d 80d0 4539 7f35 0c3e 8e38 2ebd
00000320: 3a73 d5bd 63e6 463e ea2e 603e 040f 14bd
00000330: fe4c f33d dc88 dc3b 4632 be3c 0d9b 063e
00000340: 2e3b 73be a7cb 80bd ecb2 a4bd c4bc 07bd
00000350: ddef 8bbe 7417 98be f98f e8bc 6019 b4bd
00000360: d4eb 7d3e 799d 3c3e 4b1b c03d e21d 14bd
00000370: 5b2f 4c3e 1f2c 43bd 37ba 153d e018 9b3c
00000380: 7259 84bd a08c 843d ac87 00be e8e2 b5bc
00000390: f178 5bbd 02c4 0d3e ffeb 07be 7114 0e3e
000003a0: e9cd e0bd 631e d53d a6e5 d63c 3a3e 323e
000003b0: 6ec8 453e 776a dabd f31c c8bc 3f4b 1f3e
000003c0: 5a73 14be 57df e1bc d4be 01be f712 403e
000003d0: 8901 6d3d 3aad 5f3e cff7 6b3d 2c78 ad3d
000003e0: 0cb8 edbd 681d 1c3e e716 563e 31a4 da3d
000003f0: 2e7a c4bd a7da 12bc 91b0 ccbd a635 e7bd

conv_1_B f4 [32]
-9.5607335e-09 1.1583228e-09 -4.2137425e-11 -1.0316027e-09 -3.5569796e-09 -1.2881148e-09 -4.3674278e-09 -7.322843e-08
5.5477084e-08 1.6107506e-08 -1.04963025e-08 9.342278e-10 -1.8599803e-09 -6.9388304e-09 8.9376256e-10 1.6203808e-10
1.666382e-09 1.2788337e-08 -3.8698067e-09 2.3429623e-09 3.8783625e-09 1.0545342e-08 -1.3808848e-08 2.7998879e-09
5.8639693e-09 -2.0566269e-09 -3.065983e-09 2.9918563e-09 -1.1947205e-08 -3.6827878e-08 2.1207233e-08 -3.5398589e-09
00000000: 8d40 24b2 dc32 9f30 8652 39ae 4bc8 8db0
00000010: 0c6f 74b1 8309 b1b0 4d10 96b1 c141 9db3
00000020: b345 6e33 c85c 8a32 3a53 34b2 3866 8030
00000030: 3da2 ffb0 996a eeb1 f3ac 7530 aa29 322f
00000040: 9b06 e530 b3b3 5b32 2ef7 84b1 d401 2131
00000050: 7042 8531 e82a 3532 f53b 6db2 2668 4031
00000060: 057c c931 9054 0db1 58b1 52b1 4b99 4d31
00000070: 5d40 4db2 ae2c 1eb3 332b b632 db41 73b1

batchnorm_1_scale f4 [32]
1.0133932 1.0687183 0.945306 0.98360336 1.0253769 0.9620816 0.9869399 1.0125371
1.045344 0.9997318 0.9145324 0.97657484 1.0147891 0.92802846 0.945665 1.0066179
0.97420853 0.9611117 1.0734097 0.9925476 0.98937273 0.9488384 1.0077313 0.9523354
1.0587729 1.1222883 0.98448306 1.057579 0.9427667 0.9799436 0.9948541 0.9400079
00000000: deb6 813f c3cb 883f 93ff 713f 6ecd 7b3f
00000010: 8d3f 833f fb4a 763f 18a8 7c3f d19a 813f
00000020: d5cd 853f 6cee 7f3f cc1e 6a3f cf00 7a3f
00000030: 9ce4 813f 4693 6d3f 1a17 723f dbd8 803f
00000040: bb65 793f 6b0b 763f 7d65 893f 9917 7e3f
00000050: 8847 7d3f 13e7 723f 57fd 803f 41cc 733f
00000060: df85 873f 25a7 8f3f 1507 7c3f c05e 873f
00000070: 2959 713f 95dd 7a3f c2ae 7e3f 5ca4 703f

batchnorm_1_B f4 [32]
-0.039936744 -0.00942631 -0.037208274 0.017937766 0.057425454 0.07012182 -0.07271821 -0.039080832
0.067105584 0.034464575 0.024697596 0.03155802 -0.00032590388 -0.14143197 -0.053959403 0.02244088
-0.049331963 -0.012396851 0.14251475 0.03854161 0.08250754 -0.1389462 0.0021805423 -0.030042768
0.07869852 0.076092735 0.023148939 0.081939384 0.035658915 0.012414678 -0.1883462 -0.038557347
00000000: b694 23bd cf70 1abc b467 18bd 39f2 923c
00000010: f436 6b3d 079c 8f3d 49ed 94bd 3913 20bd
00000020: a76e 893d ba2a 0d3d 9d52 ca3c fb42 013d
00000030: 14de aab9 8bd3 10be 8904 5dbd f0d5 b73c
00000040: 5010 4abd 291c 4bbc 63ef 113e cfdd 1d3d
00000050: b7f9 a83d ea47 0ebe 6ee7 0e3b 401c f6bc
00000060: b12c a13d 82d6 9b3d d8a2 bd3c d6cf a73d
00000070: 150f 123d ef66 4b3c d4dd 40be 4fee 1dbd

batchnorm_1_mean f4 [32]
0.002136156 -0.003890328 -0.004410997 -0.002255559 0.00039561093 0.0020240098 0.002494812 -0.00042508543
0.004201196 -0.017749548 -0.0026414096 -0.0033443272 -0.00023602694 -0.0017719567 -0.0021080822 0.0009649396
-0.0018197596 0.0010203123 0.002424933 0.0002978593 -0.0022239834 -0.0016332418 3.0994415e-06 0.0034130812
-0.0017910153 -0.0023488477 -0.003910482 -0.0037065446 0.0077755153 -0.0072969496 0.0040399507 0.0065247416
00000000: c0fe 0b3b e0f4 7ebb 208a 90bb 00d2 13bb
00000010: 006a cf39 40a5 043b 0080 233b 00de deb9
00000020: 30aa 893b 8067 91bc 801b 2dbb 802c 5bbb
00000030: 007e 77b9 0041 e8ba c027 0abb 00f4 7c3a
00000040: 0085 eeba 00bc 853a a0eb 1e3b 002a 9c39
00000050: 40c0 11bb 8012 d6ba 0000 5036 00ae 5f3b
00000060: 80c0 eaba 20ef 19bb 8023 80bb 80e9 72bb
00000070: c0c9 fe3b 401b efbb 9061 843b 80cd d53b

batchnorm_1_var f4 [32]
418.79535 374.19272 1624.2258 189.5072 398.63028 1040.7968 179.28401 840.3939
448.5792 151801.45 4275.8047 1468.626 210.17502 657.6381 1696.9384 8650.142
2159.7642 1735.9827 452.1792 522.8418 973.7432 1174.189 7062.065 1097.4282
1413.8677 201.827 2509.6453 2748.287 6714.05 628.7204 334.88684 11855.388
00000000: ce65 d143 ab18 bb43 3a07 cb44 d881 3d43
00000010: ad50 c743 7f19 8244 b548 3343 3619 5244
00000020: 234a e043 5d3e 1448 709e 8545 0894 b744
00000030: ce2c 5243 d768 2444 071e d444 9128 0746
00000040: 3afc 0645 72ff d844 f016 e243 e0b5 0244
00000050: 916f 7344 0cc6 9244 85b0 dc45 b42d 8944
00000060: c4bb b044 b6d3 4943 53da 1c45 98c4 2b45
00000070: 66d0 d145 1b2e 1d44 8471 a743 8d3d 3946

conv_2_W f4 [64, 32, 2, 2]
-0.110373974 0.07096987 0.11569916 -0.05274147 -0.0006226126 -0.045857172 0.043382335 0.057701275
0.035725106 0.06484043 -0.031455137 -0.032554492 -0.036699157 0.18956244 -0.027494485 -0.05819068
-0.028221475 -0.039423913 -0.07752605 0.0002227603 0.06680148 0.0839895 0.070023365 -0.008150469
-0.08747101 0.14026086 0.0043091825 0.11612566 -0.104831204 -0.106441885 0.007296595 -0.058883782
0.08456381 -0.1258868 -0.07581382 -0.008521631 -0.049661074 0.13136488 -0.039181072 0.12833437
0.041442707 0.08681978 -0.047426306 -0.058361527 0.02308802 0.07282868 0.0086561125 -0.055705547
-0.055830773 0.12729311 -0.11684276 0.05142523 -0.036947906 -0.07559331 0.07574162 0.088195145
0.06322632 0.0025336049 0.05160751 -0.035491392 0.065248415 0.050977666 -0.05649588 0.05062657
0.14935921 0.08122034 0.05158976 0.05859467 0.0682239 -0.139646 0.0657645 -0.12574391
-0.066008426 -0.007604382 0.052944344 0.20009784 0.090662286 0.14464766 -0.08505072 0.12168065
0.115828685 0.0631723 -0.00681039 -0.07221643 0.016782373 -0.08648089 0.03320426 0.009682989
-0.029913967 0.05522952 -0.1347144 -0.12849212 -0.046354998 -0.018624226 -0.006029144 0.06018774
-0.010087606 0.102186255 -0.046472065 0.061240725 0.033241466 0.10831068 0.020897878 0.106962636
-0.008622763 0.0165285 -0.115651496 0.095308304 -0.061396703 0.18142505 -0.04985901 0.107277855
-0.086472385 -0.16575275 0.120329455 -0.055129852 -0.018027201 -0.015592665 -0.030747043 -0.0034092853
0.024481036 -0.083299436 0.1260632 -0.03245867 -0.061189856 -0.11911001 -0.03750755 -0.13232721
-0.023247916 0.09023175 -0.05866696 0.00927802 0.115634285 0.022969719 0.15565729 -0.057418812
0.12429977 0.094287634 0.049466062 0.0076710763 0.05928836 0.14486098 -0.03177299 0.10106269
-0.12795064 -0.06066994 0.054912742 -0.09430661 -0.05074657 -0.07808005 -0.06519257 0.052372552
0.061215825 -0.024586499 -0.003968571 0.02377632 0.13071056 0.038758688 0.048491217 0.110396884
0.028228346 0.13027057 -0.022225328 -0.0036875305 0.040329706 0.038214035 0.07246105 -0.06433547
-0.080487035 0.08996937 -0.028612804 0.043401152 -0.01806338 0.049270548 0.010510685 0.0674647
0.063681826 -0.037512273 -0.09206388 -0.0044634514 -0.022282915 -0.026824275 0.008072012 0.07964435
-0.030128289 -0.022683913 0.06827587 0.07185533 0.09109107 0.0724199 -0.0049519674 -0.06498065
0.07521553 -0.044413403 -0.081605256 -0.11252515 0.08564578 -0.07337477 -0.05893218 -0.06612588
0.038976796 -0.11705851 -0.11630629 0.019030176 -0.0046437653 -0.11065743 0.123514675 0.008023512
0.01109451 0.065708436 0.039739292 -0.063196085 -0.041518055 0.12394817 -0.10996826 0.078804694
0.022704931 -0.09124046 -0.11645296 -0.10919539 0.012692213 0.019781942 0.07208899 0.046798576
0.08344184 0.1427202 0.105569825 0.0774251 -0.025608744 -0.058976322 0.06978776 0.1454207
-0.07578057 0.019769888 -0.017376594 0.018489026 0.121173844 -0.033961378 0.061129827 0.10692045
-0.07688565 0.045361325 0.05405121 -0.053605285 -0.051829223 -0.06919439 -0.019268129 -0.019600997
0.11892915 0.12365564 -0.10470909 -0.103325725 0.15153196 0.043818053 -0.0191574 0.110337436
00000000: c00b e2bd a758 913d aef3 ec3d 7107 58bd
00000010: d336 23ba bbd4 3bbd adb1 313d 2c58 6c3d
00000020: 7d54 123d 0fcb 843d 1ad7 00bd dc57 05bd
00000030: db51 16bd a81c 423e 1d3c e1bc 5a59 6ebd
00000040: b930 e7bc f87a 21bd fac5 9ebd c394 6939
00000050: 37cf 883d b002 ac3d 6968 8f3d 8b89 05bc
00000060: 0024 b3bd 8ba0 0f3e 0b34 8d3b 4ad3 ed3d
00000070: beb1 d6bd 34fe d9bd 4618 ef3b 1f30 71bd
00000080: ca2f ad3d 78e8 00be 4744 9bbd 509e 0bbc
00000090: 6969 4bbd 8484 063e 557c 20bd 166a 033e
000000a0: d4bf 293d 92ce b13d 1642 42bd 7f0c 6fbd
000000b0: 1623 bd3c 3427 953d 5ed2 0d3c 802b 64bd
000000c0: cfae 64bd 2059 023e 424b efbd 43a3 523d
000000d0: b056 17bd aad0 9abd 6c1e 9b3d a89f b43d
000000e0: cd7c 813d d60a 263b 6562 533d 6c5f 11bd
000000f0: f6a0 853d f5cd 503d 3968 67bd ce5d 4f3d
00000100: 9ff1 183e da56 a63d c94f 533d f700 703d
00000110: f9b8 8b3d 5cff 0ebe 8aaf 863d 03c3 00be
00000120: 6d2f 87bd 2e2e f9bb 2bdc 583d 73e6 4c3e
00000130: 26ad b93d 841e 143e 122f aebd b433 f93d
00000140: 9737 ed3d 7b60 813d b129 dfbb 35e6 93bd
00000150: 307b 893c e51c b1bd 3101 083d 66a5 1e3c
00000160: 230e f5bc 5938 623d 92f2 09be 7093 03be
00000170: bdde 3dbd d591 98bc 2090 c5bb 6b87 763d
00000180: 7c46 25bc 0747 d13d 7e59 3ebd 8ed7 7a3d
00000190: 3428 083d fdd1 dd3d 0732 ab3c 3a0f db3d
000001a0: 7d46 0dbc c766 873c b1da ecbd 0031 c33d
000001b0: 1c7b 7bbd 7dc7 393e f638 4cbd 7eb4 db3d
000001c0: 6f18 b1bd 17bb 29be 4a6f f63d d7cf 61bd
000001d0: c8ad 93bc 6178 7fbc 39e1 fbbc 516e 5fbb
000001e0: 748c c83c e598 aabd b616 013e 62f3 04bd
000001f0: 37a2 7abd f3ef f3bd 84a1 19bd c980 07be
00000200: 6a72 bebc 6ccb b83d c44c 70bd d602 183c
00000210: abd1 ec3d fe2a bc3c a064 1f3e fd2f 6bbd
00000220: e190 fe3d e019 c13d ed9c 4a3d a75d fb3b
00000230: 5ad8 723d 7056 143e 6524 02bd f5f9 ce3d
00000240: 7e05 03be 0b81 78bd 2fec 603d d323 c1bd
00000250: a3db 4fbd 6fe8 9fbd af83 85bd 9a84 563d
00000260: 72bd 7a3d a069 c9bc c90a 82bb 8fc6 c23c
00000270: fdd8 053e 6ec1 1e3d ba9e 463d c317 e23d
00000280: 223f e73c a665 053e e411 b6bc 7faa 71bb
00000290: c330 253d 5286 1c3d 7566 943d 51c2 83bd
000002a0: 63d6 a4bd dc41 b83d 6665 eabc 68c5 313d
000002b0: a7f9 93bc eacf 493d 0235 2c3c ef2a 8a3d
000002c0: 9e6b 823d 78a6 19bd fd8b bcbd 2542 92bb
000002d0: a98a b6bc 95be dbbc 7940 043c 941c a33d
000002e0: 9acf f6bc 9dd3 b9bc 38d4 8b3d e328 933d
000002f0: f48d ba3d e250 943d 1d44 a2bb 9314 85bd
00000300: 9a0a 9a3d d4ea 35bd a820 a7bd 9673 e6bd
00000310: 0e67 af3d 8345 96bd df62 71bd 016d 87bd
00000320: 22a6 1f3d 5fbc efbd fe31 eebd 2ce5 9b3c
00000330: ba2a 98bb 5da0 e2bd 43f5 fc3d 0c75 033c
00000340: bfc5 353c 2592 863d abc5 223d f36c 81bd
00000350: d60e 2abd 8ad8 fd3d 0a37 e1bd 5b64 a13d
00000360: b1ff b93c 47dc babd e47e eebd d5a1 dfbd
00000370: 00f3 4f3c bd0d a23c 64a3 933d ddaf 3f3d
00000380: 8ee3 aa3d 3e25 123e fe34 d83d 0d91 9e3d
00000390: 6ec9 d1bc 2891 71bd e3ec 8e3d 2ae9 143e
000003a0: d832 9bbd 76f4 a13c 5c59 8ebc 4c76 973c
000003b0: fe29 f83d 161b 0bbd 4563 7a3d 1cf9 da3d
000003c0: 3976 9dbd cccc 393d cd64 5d3d 3791 5bbd
000003d0: e14a 54bd cab5 8dbd 32d8 9dbc 4592 a0bc
000003e0: 2091 f33d 2b3f fd3d b871 d6bd 709c d3bd
000003f0: 322b 1b3e 8f7a 333d fbef 9cbc 98f8 e13d

conv_2_B f4 [64]
-2.7992714e-08 1.5650594e-08 -5.7690933e-08 9.897274e-09 2.6093538e-09 -5.2579896e-08 7.672727e-09 3.9861057e-09
1.1038439e-08 -9.560025e-09 -3.2258725e-08 6.9880857e-09 -8.147628e-09 -1.8649263e-08 -5.9315277e-09 9.6044786e-08
2.522021e-08 -5.925215e-09 6.7537925e-08 3.0108256e-09 -5.20327e-08 3.0202937e-08 -1.0875435e-08 2.924348e-10
-6.6425763e-09 -1.5163663e-09 1.678097e-08 -1.0982968e-08 -1.0513975e-07 5.3753524e-08 -9.886086e-09 1.5378605e-09
-3.1515757e-08 3.6480706e-08 -8.5906354e-10 3.137537e-09 1.8440051e-09 -1.0301108e-08 1.1727501e-08 -1.989837e-08
-4.649647e-09 2.6310413e-08 6.41035e-10 -8.638247e-08 -7.874995e-09 -1.36878695e-08 4.149913e-08 -1.03272475e-08
3.0674656e-08 -4.8359926e-08 -3.878095e-09 -6.158082e-09 4.0731827e-08 -1.7098932e-08 -1.11297735e-08 -7.5501525e-09
6.7357886e-10 -5.5020173e-08 -2.346412e-09 -1.1068577e-08 3.435041e-10 -8.300571e-08 4.4950767e-08 -4.0338275e-09
00000000: a174 f0b2 0570 8632 dac7 77b3 ac08 2a32
00000010: 3d50 3331 35d4 61b3 03d1 0332 28f6 8831
00000020: 91a3 3d32 6f3d 24b2 d88c 0ab3 da1b f031
00000030: a6f9 0bb2 2a32 a0b2 45ce cbb1 2e41 ce33
00000040: d4a3 d832 be96 cbb1 5e09 9133 01e7 4e31
00000050: 8f7a 5fb3 7bb8 0133 abd6 3ab2 8ac4 a02f
00000060: b83c e4b1 6568 d0b0 be25 9032 9baf 3cb2
00000070: 30c9 e1b3 a0de 6633 77d7 29b2 a85c d330
00000080: f15b 07b3 f6ae 1c33 3923 6cb0 229c 5731
00000090: 2970 fd30 c1f8 30b2 187a 4932 faec aab2
000000a0: bac2 9fb1 3601 e232 d434 3030 4481 b9b3
000000b0: 984a 07b2 e327 6bb2 c73c 3233 b76b 31b2
000000c0: 24bf 0333 4db4 4fb3 1640 85b1 1097 d3b1
000000d0: 1ef1 2e33 f3e0 92b2 4335 3fb2 ecb5 01b2
000000e0: e626 3930 524f 6cb3 843e 21b1 1e28 3eb2
000000f0: e7d7 bc2f df40 b2b3 e40f 4133 ec99 8ab1

batchnorm_2_scale f4 [64]
0.9983509 1.0343671 0.99737954 0.9570805 0.9887293 0.9932437 0.9874977 0.9716388
0.97352654 0.99643123 0.9892995 0.9312179 1.0104465 0.9646756 0.99947363 0.9714778
1.0088333 1.0416566 1.0089761 1.0002136 0.9988399 0.96003306 0.96136934 0.9869774
1.009886 0.98706657 1.0374117 1.029686 0.99330163 0.9585359 1.0224915 1.0523312
0.99670494 0.9864321 0.98969436 1.0031942 0.96126366 1.0197369 0.96333784 0.9716418
0.9826583 1.0000534 1.0146221 1.0155354 1.0145946 1.0008256 0.9951658 1.0379288
1.0098169 1.0085032 0.9291023 0.9733263 0.9845539 0.9816818 1.0568992 0.97717816
0.9884148 0.97468406 0.9995894 1.0379761 0.987842 0.9839685 1.0302176 0.9700733
00000000: ed93 7f3f 2466 843f 4454 7f3f 3a03 753f
00000010: 5d1d 7d3f 3845 7e3f a6cc 7c3f 52bd 783f
00000020: 0939 793f 1e16 7f3f bb42 7d3f 4c64 6e3f
00000030: 5056 813f fbf4 763f 81dd 7f3f c5b2 783f
00000040: 7321 813f 0155 853f 2126 813f 0007 803f
00000050: f9b3 7f3f bac4 753f 4d1c 763f 8daa 7c3f
00000060: f243 813f 65b0 7c3f e8c9 843f c0cc 833f
00000070: 0449 7e3f 9c62 753f 00e1 823f cab2 863f
00000080: 0e28 7f3f d086 7c3f 9c5c 7d3f ab68 803f
00000090: 6015 763f bd86 823f 4f9d 763f 84bd 783f
000000a0: 7f8f 7b3f c001 803f 23df 813f 10fd 813f
000000b0: 3cde 813f 0e1b 803f 30c3 7e3f dada 843f
000000c0: ae41 813f a216 813f a6d9 6d3f ea2b 793f
000000d0: b90b 7c3f 804f 7b3f 7948 873f 5928 7a3f
000000e0: c108 7d3f e584 793f 17e5 7f3f 67dc 843f
000000f0: 37e3 7c3f 5ce5 7b3f 2cde 833f b956 783f

batchnorm_2_B f4 [64]
0.040339023 -0.038783785 -0.055222485 -0.06405568 0.0010827024 -0.012468134 -0.007399322 -0.028802736
-0.059400856 0.01359995 0.008109826 0.021230219 -0.011787862 0.006646904 0.0068754405 -0.017685585
-0.0022216176 0.02407722 0.0062925057 0.019813137 0.01766638 -0.069570646 0.014069024 0.0058933
0.0645965 -0.0014204779 0.09480589 -0.018697575 0.007773545 -0.048879925 -0.017237015 -0.007832742
-0.03244706 -0.0063843676 -0.032316964 -0.0029964074 0.03518865 0.05842188 -0.05127134 -0.00852996
-0.0144829815 -0.008471247 -0.02204418 -0.021236511 -0.03986872 -0.0015436918 0.029594941 -0.06379874
0.018481258 0.0200052 -0.03084187 0.06332844 -0.020075038 -0.019329747 0.020677703 0.025356166
-0.0035611962 -0.13208416 0.008671946 -0.013641341 0.016463123 -0.0051445877 -0.017620819 -0.04820423
00000000: 883a 253d bfdb 1ebd f930 62bd a02f 83bd
00000010: 77e9 8d3a 2547 4cbc 0376 f2bb b7f3 ebbc
00000020: 504e 73bd 53d2 5e3c 13df 043c ffea ad3c
00000030: e021 41bc 46ce d93b 604b e13b 5ce1 90bc
00000040: 8f98 11bb 973d c53c 5d31 ce3b 294f a23c
00000050: 16b9 903c 0e7b 8ebd c381 663c 951c c13b
00000060: 2b4b 843d 542f baba 9729 c23d a82b 99bc
00000070: 39b9 fe3b 5136 48bd a434 8dbc e754 00bc
00000080: 35e7 04bd f533 d1bb cb5e 04bd 605f 44bb
00000090: f921 103d c84b 6f3d e601 52bd 3fc1 0bbc
000000a0: 074a 6dbc fcca 0abc ff95 b4bc 31f8 adbc
000000b0: 624d 23bd b455 caba 1771 f23c eaa8 82bd
000000c0: 0266 973c f2e1 a33c 17a8 fcbc 57b2 813d
000000d0: 6874 a4bc 6b59 9ebc 4964 a93c bcb7 cf3c
000000e0: f562 69bb 1241 07be c714 0e3c ee7f 5fbc
000000f0: acdd 863c ee93 a8bb 8959 90bc cc71 45bd

batchnorm_2_mean f4 [64]
0.4267487 0.61186945 4.6856527 -0.8539828 -2.0775537 -0.40574214 -1.3882767 -0.8222388
1.7899386 0.55708426 -0.70519924 0.686295 0.3807361 -1.1944231 -0.78240305 -0.28025523
-1.3266261 0.40678322 -0.42505667 -0.21664649 -0.26459947 -0.5016082 0.6993147 0.64698124
-1.0075867 -0.52049786 0.09725094 1.4219733 -0.9658753 -0.70026004 0.39828598 0.7852781
1.0941916 -0.4849635 1.1364853 -1.4332042 0.094520465 0.195923 0.6045281 -1.9399383
-0.80923194 -1.3762684 0.3306411 3.483271 0.5950029 -0.13578966 0.08545696 0.820678
-1.1615919 -0.71390474 0.4845521 0.1380177 -0.5247695 -0.48838276 -0.1459187 0.52700984
-0.62513864 0.51412123 -0.33007735 0.75797176 0.2468069 -1.6076379 1.9908541 -0.997558
00000000: ce7e da3e 7aa3 1c3f def0 9540 9e9e 5abf
00000010: a4f6 04c0 6fbd cfbe 0db3 b1bf 3e7e 52bf
00000020: b51c e53f 139d 0e3f f087 34bf 07b1 2f3f
00000030: d8ef c23e dbe2 98bf 914b 48bf 9d7d 8fbe
00000040: e2ce a9bf e445 d03e 07a1 d9be 94d8 5dbe
00000050: 9579 87be 6569 00bf 4a06 333f 90a0 253f
00000060: 9af8 80bf 593f 05bf 802b c73d 3903 b63f
00000070: 9b43 77bf 3e44 33bf 24ec cb3e fc07 493f
00000080: 780e 8c3f 234d f8be 5a78 913f 3c73 b7bf
00000090: f293 c13d 0aa0 483e 5bc2 1a3f e64f f8bf
000000a0: d329 4fbf 9029 b0bf ca49 a93e e9ed 5e40
000000b0: 1c52 183f 720c 0bbe 0f04 af3d f417 523f
000000c0: 0baf 94bf 76c2 36bf 3617 f83e 8354 0d3e
000000d0: 4b57 06bf 4e0d fabe b66b 15be 1eea 063f
000000e0: 1609 20bf 739d 033f e6ff a8be 700a 423f
000000f0: f3ba 7c3e 14c7 cdbf 4fd4 fe3f f65f 7fbf

batchnorm_2_var f4 [64]
5.207563 0.37132084 176.15016 4.0299582 28.650675 1.1965964 14.495122 3.0833056
24.870735 4.200673 3.1664855 2.4174252 1.7007673 7.4881544 2.5216198 1.1113887
5.182807 1.9756259 4.2283673 0.92796946 5.053605 6.9122477 3.1521895 3.30697
5.117633 2.0770621 1.5235645 8.659944 5.2641068 5.0662613 4.056162 3.0337377
5.509474 0.28437132 6.8866515 8.245484 0.8606092 1.3018581 3.8210115 26.529495
3.4077516 28.627028 0.72476935 97.16446 0.514779 1.8402954 0.27589256 0.41592413
10.001491 2.191622 4.5599933 0.90915114 5.2646346 5.3429112 0.28228718 2.315621
1.7415144 0.5281733 4.2377152 1.4498881 2.8055363 27.16756 23.048302 5.1566305
00000000: 5ba4 a640 c41d be3e 7126 3043 6bf5 8040
00000010: 9534 e541 122a 993f 05ec 6741 e154 4540
00000020: 44f7 c641 ea6b 8640 b3a7 4a40 18b7 1a40
00000030: beb2 d93f f69e ef40 3862 2140 fc41 8e3f
00000040: 8ed9 a540 4fe1 fc3f c94e 8740 688f 6d3f
00000050: 22b7 a140 2231 dd40 79bd 4940 65a5 5340
00000060: a6c3 a340 96ee 0440 2904 c33f 218f 0a41
00000070: 9073 a840 d01e a240 14cc 8140 c228 4240
00000080: 9c4d b040 1e99 913e 735f dc40 81ed 0341
00000090: e250 5c3f 49a3 a63f 748b 7440 683c d441
000000a0: 9a18 5a40 2704 e541 7c8a 393f 3454 c242
000000b0: 8ec8 033f cd8e eb3f ca41 8d3e 02f4 d43e
000000c0: 1b06 2041 8943 0c40 77eb 9140 21be 683f
000000d0: e377 a840 21f9 aa40 f287 903e 2233 1440
000000e0: f2e9 de3f 5e36 073f 5d9b 8740 ef95 b93f
000000f0: e88d 3340 2a57 d941 ec62 b841 1e03 a540

conv_3_W f4 [128, 64, 2, 2]
-0.076802954 0.027309386 0.048443582 -0.079261445 -0.0114959525 -0.02025681 -0.04230996 -0.01949343
0.057432476 -0.089408435 0.031165656 -0.088261046 -0.04691517 0.074385256 0.018103268 -0.027877048
-0.015353571 0.03615516 -0.06966421 0.04022856 0.03911235 -0.085477814 0.078364156 0.049892228
0.0035621368 -0.06824109 -0.036521193 0.061178535 0.073400505 0.060661107 0.044078063 -0.023562452
-0.0591008 -0.046186235 -0.026249766 -0.086903416 -0.045807853 -0.059805207 -0.050418366 -0.035142295
0.0030387847 -0.056171738 -0.07049201 -0.0022034638 -0.024741229 -0.04275103 0.032832798 0.049150754
0.060756918 -0.03892738 0.034312334 0.028657354 -0.080977075 -0.065906554 0.016185885 -0.07632273
-0.0832065 0.07643329 -0.09308618 0.0028622216 0.04502111 0.042449597 0.011204835 -0.029800516
0.058088653 -0.071431 -0.00964007 0.052965768 0.017526412 0.030663937 -0.03163731 -0.021359058
-0.06902796 -0.02444129 0.022598358 -0.00605781 -0.00017871868 -0.07565805 -0.02963215 0.08389816
-0.05490659 -0.06589325 -0.018045777 0.08876312 -0.014769147 0.017255489 0.090351686 0.020875858
-0.07338902 -0.016963514 -0.0641576 -0.061841585 0.07040531 0.07643029 -0.043636966 0.049895927
-0.03960743 -0.03974268 -0.08738711 -0.02521601 -0.06984581 -0.052971687 0.08028391 -0.05529417
-0.010608977 -0.08814891 -0.0019236517 -0.028442843 0.020944128 -0.001532499 0.10025985 0.043459885
-0.08787776 0.069305405 -0.06844629 -0.07983913 -0.084492184 -0.030871376 0.009115667 -0.043979317
0.06193573 -0.029197874 0.029090645 -0.023084141 -0.057193104 0.062495824 -0.053373985 0.067202084
0.04259974 0.011161586 -0.05203903 -0.059955887 -0.06695881 0.07406661 0.043831073 0.04904673
0.04936021 -0.024288073 -0.052504443 -0.016369205 0.07245779 0.0042941086 -0.07747771 0.02197491
-0.05517471 -0.028433817 -0.06155709 -0.03179695 -0.07254509 -0.02170099 0.07129217 0.024557136
-0.06246782 -0.08853323 -0.017004075 -0.011566374 -0.047618844 0.03893368 0.02227656 -0.022573108
0.0032145262 0.014278616 0.030842908 0.011123604 -0.08373563 -0.087701224 -0.025860222 -0.021142334
0.015044832 0.074201934 0.0017956749 -0.018458068 0.046134684 -0.08405206 0.010379709 0.0005156583
-0.022926105 -0.05168215 -0.055777535 -0.017269185 0.08487317 -0.028085744 -0.024753131 -0.014321613
0.006669601 -0.04732919 0.055731043 -0.08294393 -0.04340814 0.05198685 -0.043465342 -0.07004286
0.050665747 0.009356253 0.07972691 -0.07749136 0.0010990003 0.03610871 0.03055939 0.068970665
0.024828242 -0.09418147 0.067013815 0.050235637 -0.093384154 0.015453406 -0.0075282436 0.046350896
-0.028759344 0.0800559 0.024566878 0.037523087 0.034220982 -0.03186303 -0.011415124 0.05472625
0.029378727 -0.09308652 0.06974551 -0.066959016 0.001240664 -0.043469306 0.0628864 0.05316684
0.02435778 0.07121035 0.037632857 0.05127003 -0.044148795 -0.055655632 -0.065177225 0.049331076
-0.05342888 0.0035545642 -0.040319648 0.0052196486 -0.08355588 -0.08331521 -0.004964592 -0.0661101
0.03226992 -0.04354323 -0.034417596 0.0517059 0.08001686 0.014052448 0.07625843 -0.04364281
-0.037347965 0.014338637 0.032916676 -0.054182418 0.06724149 -0.07137395 -0.044392683 -0.03859106
00000000: de4a 9dbd efb7 df3c c76c 463d d353 a2bd
00000010: 8559 3cbc 9cf1 a5bc 354d 2dbd b0b0 9fbc
00000020: 513e 6b3d c51b b7bd 1e4f ff3c 35c2 b4bd
00000030: 1f2a 40bd 4c57 983d 4e4d 943c 685e e4bc
00000040: 8b8d 7bbc 6f17 143d 1cac 8ebd b4c6 243d
00000050: 4634 203d fe0e afbd 637d a03d cb5b 4c3d
00000060: bd72 693b fcc1 8bbd 3f97 15bd 5896 7a3d
00000070: 0153 963d c877 783d 338b 343d 0b06 c1bc
00000080: ae13 72bd c72d 3dbd c009 d7bc 6bfa b1bd
00000090: 04a1 3bbd 4ef6 74bd 7d83 4ebd 5ef1 0fbd
000000a0: 5926 473b 5614 66bd 1d5e 90bd fd67 10bb
000000b0: 1eae cabc b41b 2fbd af7b 063d 4d52 493d
000000c0: 3fdc 783d 5172 1fbd 178b 0c3d d4c2 ea3c
000000d0: 4fd7 a5bd 04fa 86bd 4398 843c 174f 9cbd
000000e0: 2b68 aabd 0f89 9c3d f8a3 bebd 1c94 3b3b
000000f0: 0e68 383d a1df 2d3d 7c94 373c 3620 f4bc
00000100: 5eee 6d3d 6b4a 92bd 62f1 1dbc a2f2 583d
00000110: 8d93 8f3c f032 fb3c 2096 01bd 31f9 aebc
00000120: 885e 8dbd 1a39 c8bc 3120 b93c 9880 c6bb
00000130: 6e66 3bb9 9cf2 9abd 1fbf f2bc ccd2 ab3d
00000140: bce5 60bd 0af3 86bd bdd4 93bc 70c9 b53d
00000150: 4bfa 71bc 625b 8d3c 4e0a b93d d903 ab3c
00000160: fc4c 96bd 11f7 8abc 0f65 83bd 9a4d 7dbd
00000170: a930 903d 7c87 9c3d adbc 32bd ac5f 4c3d
00000180: 673b 22bd 38c9 22bd 03f8 b2bd ce91 cebc
00000190: 520b 8fbd d7f8 58bd e46b a43d 247c 62bd
000001a0: 46d1 2dbc 6a87 b4bd 0a23 fcba f700 e9bc
000001b0: 0593 ab3c 22de c8ba 0955 cd3d fe02 323d
000001c0: 41f9 b3bd feef 8d3d 922d 8cbd b382 a3bd
000001d0: 3d0a adbd f8e5 fcbc e159 153c a823 34bd
000001e0: 52b0 7d3d 6130 efbc 814f ee3c f41a bdbc
000001f0: 5143 6abd 9ffb 7f3d ae9e 5abd 3fa1 893d
00000200: 117d 2e3d 16df 363c e126 55bd 4e94 75bd
00000210: b321 89bd 3cb0 973d 3688 333d 39e5 483d
00000220: ee2d 4a3d c8f7 c6bc e60e 57bd b618 86bc
00000230: c064 943d 98b5 8c3b a2ac 9ebd ba04 b43c
00000240: e0fe 61bd 09ee e8bc 4a23 7cbd 853d 02bd
00000250: 8592 94bd 46c6 b1bc a101 923d 0c2c c93c
00000260: 42de 7fbd e950 b5bd 214c 8bbc e480 3dbc
00000270: fa0b 43bd ec78 1f3d 557d b63c 3deb b8bc
00000280: cdaa 523b dbf0 693c 44aa fc3c c73f 363c
00000290: 967d abbd b39c b3bd d1d8 d3bc b032 adbc
000002a0: 997e 763c 2ff7 973d da5c eb3a 6035 97bc
000002b0: b9f7 3c3d 7d23 acbd a80f 2a3c 3e2d 073a
000002c0: 87cf bbbc aab0 53bd fc76 64bd 1b78 8dbc
000002d0: fcd1 ad3d 1314 e6bc 14c7 cabc 33a5 6abc
000002e0: ab8c da3b 41dc 41bd 3c46 643d 82de a9bd
000002f0: bccc 31bd 2af0 543d b708 32bd a272 8fbd
00000300: e386 4f3d f84a 193c dd47 a33d cab3 9ebd
00000310: 550c 903a bae6 133d b057 fa3c 7e40 8d3d
00000320: 9964 cb3c 37e2 c0bd 8a3e 893d e2c3 4d3d
00000330: 3140 bfbd 4830 7d3c 7caf f6bb 70da 3d3d
00000340: b798 ebbc 59f4 a33d 7a40 c93c cfb1 193d
00000350: 4d2b 0c3d cf82 02bd 8006 3bbc a228 603d
00000360: a8ab f03c 25a4 bebd bcd6 8e3d cf21 89bd
00000370: c79d a23a df0c 32bd 96ca 803d 79c5 593d
00000380: f889 c73c bbd6 913d e924 1a3d 8600 523d
00000390: 5ed5 34bd 29f7 63bd a37b 85bd 620f 4a3d
000003a0: 3ed8 5abd b1f3 683b 3726 25bd 9609 ab3b
000003b0: 581f abbd 2aa1 aabd 04ae a2bb bb64 87bd
000003c0: 772d 043d 635a 32bd 77f9 0cbd 91c9 533d
000003d0: e1df a33d 3d3c 663c 612d 9c3d cec2 32bd
000003e0: 2efa 18bd 9aec 6a3c a3d3 063d 62ee 5dbd
000003f0: e8b5 893d 812c 92bd 1ad5 35bd a911 1ebd

conv_3_B f4 [128]
1.2218614e-07 -2.4015261e-08 2.9148893e-08 1.2157592e-08 -7.085306e-09 4.8956565e-08 2.897264e-09 3.3577359e-09
-3.328082e-08 1.3168055e-08 -1.8030994e-08 1.7803144e-08 -2.7576435e-08 3.1402347e-09 -7.321677e-08 -8.9382235e-09
3.4923527e-08 2.5685138e-09 5.070369e-08 1.3734748e-07 -4.7665485e-09 6.3139154e-08 1.8602845e-08 -2.9544944e-08
-4.3690378e-08 -1.1526812e-09 1.5060076e-08 -2.0246942e-09 -5.3296056e-09 2.4795614e-08 -2.8670362e-09 6.9450896e-11
1.0410467e-07 -5.6469536e-09 2.042651e-08 1.0388855e-08 1.2115665e-07 -2.978158e-09 -2.1287756e-08 1.09151514e-08
3.41455e-08 -1.617235e-09 8.773071e-09 -9.625612e-09 1.9317132e-09 7.3246933e-09 1.4702292e-08 6.18942e-08
1.6122145e-09 -5.0776334e-09 -3.5865195e-08 7.692053e-08 -5.0878867e-08 6.2422596e-09 7.8687904e-08 -7.973444e-08
-1.0453617e-08 1.5770492e-08 6.1717415e-08 2.3362392e-09 -1.0683256e-08 -8.670486e-09 2.6754698e-08 1.7332477e-08
4.2040078e-08 5.683929e-09 -1.0456852e-07 1.3104813e-08 1.7391378e-09 3.892073e-08 -6.449602e-08 -5.7136496e-10
-4.192626e-08 -1.7974823e-07 4.2098378e-08 -9.41806e-08 -7.8399026e-10 -5.9307183e-08 -9.82118e-09 -1.140839e-08
-8.411946e-09 9.974632e-10 1.0619342e-07 -9.25817e-09 4.6904024e-08 1.4352117e-09 -3.882904e-08 -5.892623e-09
9.203443e-09 4.6877112e-08 -9.993551e-08 6.567462e-08 7.86973e-08 1.0127054e-08 -4.656436e-08 -5.348228e-08
-2.367278e-08 2.9161817e-09 1.7235445e-09 3.1652296e-09 -5.407077e-10 1.391853e-08 1.7290846e-07 2.9087413e-08
-8.535956e-08 5.7105456e-08 3.3531514e-08 5.0026564e-08 5.922794e-09 -2.0200972e-09 9.541171e-08 1.1420888e-08
4.7247827e-08 -1.207755e-08 5.3395484e-09 -8.586196e-09 7.3586213e-09 6.7514414e-08 1.0071937e-08 2.8914628e-09
-3.9554138e-08 -8.363214e-08 1.0777748e-08 -6.469598e-09 6.0801075e-10 -3.5802373e-08 -6.7107275e-09 2.0003029e-08
00000000: 4532 0334 1e4a ceb2 1863 fa32 a8dd 5032
00000010: 0373 f3b1 5044 5233 3519 4731 eabd 6631
00000020: a6f0 0eb3 b839 6232 93e2 9ab2 87ed 9832
00000030: 39e1 ecb2 98cb 5731 583b 9db3 b98e 19b2
00000040: d3fe 1533 c681 3031 4cc5 5933 ca79 1334
00000050: 01c7 a3b1 1e97 8733 17cc 9f32 05ca fdb2
00000060: 14a6 3bb3 5d6c 9eb0 755d 8132 cc22 0bb1
00000070: b51f b7b1 22fe d432 6f05 45b1 61b9 982e
00000080: 2690 df33 2107 c2b1 5f76 af32 ab7a 3232
00000090: 4917 0234 4fa8 4cb1 45dc b6b2 5885 3b32
000000a0: 60a7 1233 6645 deb0 60b8 1632 e45d 25b2
000000b0: 0fbf 0431 afac fb31 5d95 7c32 b2ea 8433
000000c0: c194 dd30 5677 aeb1 330a 1ab3 822f a533
000000d0: e885 5ab3 7f7b d631 22fb a833 793a abb3
000000e0: 7e97 33b2 ae77 8732 8289 8433 8e8b 2031
000000f0: 7589 37b2 33f5 14b2 34d2 e532 85e2 9432
00000100: 8e8f 3433 5e4c c331 278f e0b3 9423 6132
00000110: 7906 ef30 cc29 2733 1081 8ab3 3c0e 1db0
00000120: 6912 34b3 d100 41b4 a8cf 3433 5540 cab3
00000130: 6980 57b0 f0b8 7eb3 02ba 28b2 a1fe 43b2
00000140: 2184 10b2 1e17 8930 730c e433 dd0d 1fb2
00000150: 8573 4933 0641 c530 fbc4 26b3 0f78 cab1
00000160: 2c1d 1e32 ee55 4933 219c d6b3 0109 8d33
00000170: 4c00 a933 41fb 2d32 0efe 47b3 64b4 65b3
00000180: fe58 cbb2 0366 4831 d5e1 ec30 4f83 5931
00000190: eca0 14b0 581e 6f32 b7a8 3934 e6db f932
000001a0: ea4e b7b3 1d44 7533 4a04 1033 cadc 5633
000001b0: 7281 cb31 edd1 0ab1 24e5 cc33 9935 4432
000001c0: 89ed 4a33 a07d 4fb2 2a77 b731 7d82 13b2
000001d0: 1ed7 fc31 71fc 9033 d908 2d32 27b3 4631
000001e0: 3ce2 29b3 4199 b3b3 0929 3932 304b deb1
000001f0: f420 2730 20c5 19b3 2f94 e6b1 20d3 ab32

batchnorm_3_scale f4 [128]
0.9661582 0.9756438 0.9468059 0.98732686 0.9821322 0.9496065 0.9822639 0.94671667
0.9341494 0.9508741 0.9549702 0.9610004 0.9285496 0.997258 0.9705492 0.932248
0.97894883 0.9895999 0.9522353 0.9769173 0.9623231 0.96737874 0.9130083 0.9197293
0.9189055 0.97104347 0.96048486 1.0018783 0.9539602 0.9880303 0.99610007 0.98255527
0.973306 0.9796999 0.9650368 0.9785537 0.95168424 0.97033864 0.9855572 0.9884305
0.94575155 1.0001433 0.9331373 0.94047636 1.006844 0.93313193 0.9465607 0.97527635
0.96333814 0.9804193 0.9577827 0.9581485 0.95584285 0.967214 0.9595937 0.9097779
0.99480724 0.9858424 0.9680176 0.9683241 0.98755723 0.94353676 0.97384006 0.9533295
0.95772976 0.9933527 0.9241429 0.96635157 0.97563535 0.9631091 0.8910088 0.88386685
0.90154546 0.9078922 0.9579193 0.93445826 1.0017775 0.9333322 0.98887724 0.9322125
0.9611926 0.97449845 0.96260095 1.0043378 0.96591556 0.92649144 0.9702356 0.98783123
0.90638506 0.95846176 0.930999 0.96630776 0.9618016 0.96959174 0.9040357 0.93638414
0.9816634 0.9860194 0.97706676 0.9867693 0.9901213 0.96526384 0.9645348 0.9547445
0.9048498 0.9582483 0.9729257 0.96814495 0.9569003 0.992329 0.96930057 0.98096895
0.94370466 0.96367717 0.99780315 1.0065811 0.9814438 0.9592723 1.0174575 0.9905689
0.9032309 0.89734024 0.9525343 0.9832217 0.9618486 0.87944365 1.017724 0.96036613
00000000: 2556 773f cbc3 793f df61 723f 74c1 7c3f
00000010: 046d 7b3f 6919 733f a675 7b3f 065c 723f
00000020: 6a24 6f3f 7c6c 733f ed78 743f 1f04 763f
00000030: 6db5 6d3f 4d4c 7f3f ea75 783f cea7 6e3f
00000040: 649c 7a3f 6b56 7d3f b1c5 733f 4117 7a3f
00000050: cf5a 763f 22a6 773f e9ba 693f 6173 6b3f
00000060: 643d 6b3f 4e96 783f 56e2 753f 8c3d 803f
00000070: bc36 743f 8eef 7c3f 6a00 7f3f be88 7b3f
00000080: 952a 793f 9dcd 7a3f a70c 773f 7f82 7a3f
00000090: 94a1 733f 1d68 783f 7a4d 7c3f c809 7d3f
000000a0: c61c 723f b204 803f 16e2 6e3f 0fc3 703f
000000b0: 44e0 803f bce1 6e3f cd51 723f b6ab 793f
000000c0: 549d 763f c2fc 7a3f 3f31 753f 3849 753f
000000d0: 1eb2 743f 569b 773f efa7 753f 34e7 683f
000000e0: b0ab 7e3f 2b60 7c3f 00d0 773f 17e4 773f
000000f0: 8dd0 7c3f a08b 713f 954d 793f 670d 743f
00000100: c72d 753f 5d4c 7e3f a194 6c3f d162 773f
00000110: 3dc3 793f 518e 763f 2719 643f 1945 623f
00000120: afcb 663f a06b 683f 333a 753f a838 6f3f
00000130: 3f3a 803f dcee 6e3f 0f27 7d3f 7aa5 6e3f
00000140: b810 763f bb78 793f 046d 763f 248e 803f
00000150: 3e46 773f 8b2e 6d3f 5c61 783f 82e2 7c3f
00000160: da08 683f c05d 753f f355 6e3f f25f 773f
00000170: a138 763f 2a37 783f e26e 673f dfb6 6f3f
00000180: 4b4e 7b3f c46b 7c3f 0c21 7a3f ea9c 7c3f
00000190: 9778 7d3f 881b 773f c1eb 763f 236a 743f
000001a0: 3da4 673f c34f 753f a911 793f 59d8 773f
000001b0: 6bf7 743f 4609 7e3f 1524 783f c820 7b3f
000001c0: a196 713f 8cb3 763f 0770 7f3f a6d7 803f
000001d0: e73f 7b3f df92 753f 0c3c 823f ec95 7d3f
000001e0: 243a 673f 17b8 653f 4ad9 733f 6bb4 7b3f
000001f0: b63b 763f 3823 613f c844 823f 8eda 753f

batchnorm_3_B f4 [128]
-0.111814186 -0.10072662 -0.035780847 0.016486088 -0.03630978 -0.11346795 0.021260811 -0.13040797
-0.15753898 -0.011467049 -0.099580035 -0.10945573 -0.13745181 0.002464898 -0.18146291 -0.17641348
-0.050302435 0.007046361 -0.12801446 -0.13582747 0.0005998479 -0.11332387 -0.13955227 -0.1533516
-0.10193336 -0.012484322 -0.12038833 0.012043861 -0.032423202 -0.050087277 -0.026371894 -0.0050244783
-0.121381536 -0.047124974 -0.051851105 -0.0062604067 -0.15361851 -0.012850868 -0.052613787 -0.019633468
-0.15801978 0.00373217 -0.13659549 -0.12071578 -0.027160542 -0.034637067 -0.12587461 -0.03592034
0.019680602 -0.039726067 -0.0914153 -0.11825767 -0.107020326 -0.024980923 -0.11309722 -0.12701596
-0.017334769 4.5220208e-05 -0.11607621 0.015229784 0.010377585 -0.11582732 -0.096127994 -0.078953035
-0.12890401 -0.005080343 -0.13927971 -0.08883404 -0.040627096 -0.11226511 -0.13315117 -0.19473541
-0.12746185 -0.113919586 -0.120658346 -0.13529757 -0.016098492 -0.13149069 -0.012247459 -0.16411866
-0.09667109 0.020347763 -0.11527649 0.0007789803 -0.09962703 -0.16902635 -0.028016055 -0.0015803771
-0.06799945 -0.12448894 -0.14415379 -0.115934774 -0.10851936 -0.13031001 -0.14028098 -0.10581645
-0.063732505 -0.026136668 0.027425384 0.020546785 -0.019669998 0.009575016 -0.11237549 -0.03835718
-0.1363996 -0.13200758 -0.029782383 -0.104080275 -0.11585931 -0.017797714 -0.11096173 -0.014944253
-0.1677106 -0.115781225 -0.0084044635 -0.0042124796 -0.03668028 -0.13159347 -0.010457484 -0.033943675
-0.09256251 -0.124296784 -0.11883689 -0.019846197 -0.12693125 -0.14842623 -0.015320001 -0.10928669
00000000: d6fe e4bd c249 cebd f08e 12bd d50d 873c
00000010: 90b9 14bd e261 e8bd 272b ae3c ab89 05be
00000020: e651 21be 4ae0 3bbc 9ef0 cbbd 532a e0bd
00000030: 2bc0 0cbe 208a 213b 6ad1 39be bca5 34be
00000040: ed09 4ebd 29e5 e63b 3916 03be 5b16 0bbe
00000050: 1c3f 1d3a 5816 e8bd cae6 0ebe 3408 1dbe
00000060: 70c2 d0bd 0b8b 4cbc 288e f6bd 9d53 453c
00000070: 31ce 04bd 5128 4dbd df09 d8bc 61a4 a4bb
00000080: e296 f8bd 1e06 41bd d361 54bd 1924 cdbb
00000090: 2c4e 1dbe 728c 52bc 8e81 57bd 5ed6 a0bc
000000a0: f0cf 21be 6c97 743b b0df 0bbe d639 f7bd
000000b0: c97f debc 99df 0dbd 46e5 00be 3521 13bd
000000c0: 3739 a13c cdb7 22bd f237 bbbd 1431 f2bd
000000d0: 792d dbbd cba4 ccbc 849f e7bd 7910 02be
000000e0: a501 8ebc d4aa 3d38 5db9 edbd 5886 793c
000000f0: bf06 2a3c e036 edbd c1de c4bd 21b2 a1bd
00000100: 6aff 03be 0279 a6bb 579f 0ebe 9fee b5bd
00000110: 9968 26bd 40eb e5bd c858 08be b868 47be
00000120: 5c85 02be ac4e e9bd b91b f7bd 728b 0abe
00000130: fce0 83bc 7fa5 06be 91a9 48bc b90e 28be
00000140: 7efb c5bd 5ab0 a63c 1516 ecbd 7c34 4c3a
00000150: 4209 ccbd 3e15 2dbe ed81 e5bc a824 cfba
00000160: 4c43 8bbd 0ff4 febd 0d9d 13be 366f edbd
00000170: 663f debd fd6f 05be d1a5 0fbe 4cb6 d8bd
00000180: 3086 82bd 911c d6bc 33ab e03c bb51 a83c
00000190: fa22 a1bc 87e0 1c3c 1f25 e6bd 6b1c 1dbd
000001a0: 56ac 0bbe ff2c 07be 2ffa f3bc 0a28 d5bd
000001b0: a547 edbd 83cc 91bc e73f e3bd bdd8 74bc
000001c0: 54bc 2bbe b51e edbd e0b2 09bc d708 8abb
000001d0: 103e 16bd 70c0 06be de55 2bbc 8608 0bbd
000001e0: 6a91 bdbd 508f febd c160 f3bd 7e94 a2bc
000001f0: 44fa 01be 0cfd 17be be00 7bbc b3d1 dfbd

batchnorm_3_mean f4 [128]
-0.7315333 3.3182821 1.9400388 0.9356375 1.0466437 -0.9516358 0.7512493 -0.39844328
-0.5865772 2.5381634 -0.48122805 -1.0482564 -0.38104808 0.5705732 -0.5205982 -0.88733596
0.5515135 1.1236982 -0.6450639 -0.4913848 -2.7802756 -0.18074758 -0.6198022 -0.74821883
-1.1010793 1.2687849 -0.60273844 0.32287943 2.8326802 1.1688476 0.463665 0.51526463
-0.78332627 0.059074365 0.5154475 0.5881578 -0.6548476 1.3301048 2.3353088 1.6368251
-0.92961884 0.23033506 -0.99484354 -0.49546912 0.4598797 -0.8403486 -0.5534398 0.78003764
1.2048676 1.1453638 2.3318539 -0.7886505 -0.5327557 1.0403405 -0.39493805 -0.75427276
-0.022192188 1.6695219 -0.62827563 1.2639915 0.3312458 -0.46251702 -0.10561737 0.17981556
-0.7039767 0.65720236 -0.693027 0.6456522 0.809612 -0.52652216 -1.0376893 -1.3965338
-0.82224035 -1.2389538 -0.47688517 -0.50935376 0.7031878 -0.37945557 -0.04845497 -0.36647466
1.5536407 0.514473 -0.8546878 0.18239367 -0.6894903 -0.9878179 1.5995128 0.651573
-2.416872 -0.58258027 -0.74040747 -0.9687744 -0.50210035 -0.9236061 -0.8550454 -1.6954781
2.110598 0.5291685 0.83268946 0.4922035 1.0806435 1.610201 -0.9558826 1.273455
-1.2045555 -0.8454122 0.2895529 -0.6683513 -1.0518159 0.97131115 -0.7641983 2.6134257
-0.8262792 -0.6616802 0.67294466 0.2815052 0.19870548 -0.7134452 0.39355782 0.5785318
-1.30353 -1.0968912 -0.87624377 0.9805934 -0.6074567 -2.6993327 0.6118234 -0.34925506
00000000: c445 3bbf bc5e 5440 3153 f83f f085 6f3f
00000010: 6cf8 853f 679e 73bf e051 403f c200 ccbe
00000020: ec29 16bf 4571 2240 8663 f6be 442d 86bf
00000030: bc18 c3be 1611 123f ec45 05bf 7328 63bf
00000040: fd2f 0d3f 58d5 8f3f e822 25bf ca96 fbbe
00000050: 09f0 31c0 e515 39be 5bab 1ebf 458b 3fbf
00000060: 2bf0 8cbf 8b67 a23f 114d 1abf 7450 a53e
00000070: a24a 3540 cc9c 953f 8065 ed3e 62e8 033f
00000080: 1288 48bf f6f7 713d 5ef4 033f 8291 163f
00000090: 18a4 27bf e040 aa3f b375 1540 7c83 d13f
000000a0: 80fb 6dbf f4dc 6b3e 11ae 7ebf 21ae fdbe
000000b0: 5a75 eb3e 1621 57bf 3bae 0dbf 8cb0 473f
000000c0: 1a39 9a3f 489b 923f 183d 1540 00e5 49bf
000000d0: ad62 08bf e129 853f 5235 cabe 0518 41bf
000000e0: 64cc b5bc e5b2 d53f acd6 20bf 79ca a13f
000000f0: 0d99 a93e 08cf ecbe eb4d d8bd 9221 383e
00000100: d137 34bf 6a3e 283f 386a 31bf 7649 253f
00000110: bb42 4f3f 28ca 06bf 01d3 84bf 9fc1 b2bf
00000120: 587e 52bf 0a96 9ebf 4b2a f4be 0265 02bf
00000130: 1e04 343f 0048 c2be b878 46bd 91a2 bbbe
00000140: b3dd c63f 81b4 033f d2cc 5abf 68c5 3a3e
00000150: 7082 30bf a2e1 7cbf d6bc cc3f 7dcd 263f
00000160: 08ae 1ac0 fb23 15bf 588b 3dbf 9901 78bf
00000170: a689 00bf 7371 6cbf 41e4 5abf 6d05 d9bf
00000180: 0a14 0740 9677 073f 232b 553f 1902 fc3e
00000190: 8752 8a3f 111b ce3f b9b4 74bf 9300 a33f
000001a0: e02e 9abf ef6c 58bf 4740 943e 1219 2bbf
000001b0: e7a1 86bf d9a7 783f 80a2 43bf 5e42 2740
000001c0: 0987 53bf e063 29bf 1a46 2c3f 7321 903e
000001d0: 7379 4b3e 58a4 36bf 6980 c93e a91a 143f
000001e0: 12da a6bf ee66 8cbf 8351 60bf 2b08 7b3f
000001f0: 4882 1bbf dec1 2cc0 75a0 1c3f 8fd1 b2be

batchnorm_3_var f4 [128]
2.4828358 87.62621 29.431341 4.804137 7.3110948 3.4064412 9.498611 3.5681446
1.2887832 33.689396 0.73488337 2.7862074 2.324714 4.693448 4.096351 7.6471596
2.9098687 5.446272 2.718469 3.6865597 84.62374 3.012975 2.5025423 5.076829
16.675434 13.175423 5.206317 1.1348186 46.2126 9.990512 1.3136785 0.8531882
4.583294 0.9960052 2.358198 1.1590335 6.448539 11.131321 38.101826 16.698433
2.810131 0.8638002 5.5406103 1.23157 1.3269019 5.9073334 1.6111645 7.0859156
6.218035 3.7069936 44.362194 2.3312626 0.57180107 8.42725 1.6595973 3.4882412
1.1118425 27.214705 6.2200394 6.560667 1.579587 1.1154416 0.18981309 3.2743697
4.0028753 7.2120204 2.3002663 3.9332414 2.2193546 1.8831595 10.327499 17.149176
7.8931613 13.321852 2.4035802 1.2956871 2.7475276 2.259546 0.85488164 1.8915988
18.096813 1.381144 4.396586 0.44558907 4.653011 5.1411886 27.901783 1.2855875
78.35157 2.8413646 3.4427416 5.2083697 2.1380837 6.867578 10.044707 16.784304
31.844318 1.0816386 2.0563366 1.7435961 9.086346 28.462963 4.2183313 10.242111
8.888937 4.4511085 3.6227956 3.2461405 5.8720074 5.9307704 4.836963 78.41385
3.4664984 3.633589 2.8577642 1.5626453 1.114833 5.4179463 2.154284 2.863566
11.673559 11.92833 2.0165036 15.124319 1.7985452 60.981594 2.3535423 2.0933986
00000000: c8e6 1e40 9f40 af42 6373 eb41 7ebb 9940
00000010: 7df4 e940 2203 5a40 50fa 1741 7b5c 6440
00000020: d9f6 a43f f1c1 0642 5121 3c3f 3951 3240
00000030: 1dc8 1440 ba30 9640 4f15 8340 88b5 f440
00000040: 4a3b 3a40 dc47 ae40 65fb 2d40 98f0 6b40
00000050: 5b3f a942 95d4 4040 a729 2040 6275 a240
00000060: 4a67 8541 88ce 5241 269a a640 bc41 913f
00000070: b4d9 3842 23d9 1f41 9e26 a83f 8b6a 5a3f
00000080: 58aa 9240 32fa 7e3f b7ec 1640 365b 943f
00000090: 6e5a ce40 e419 3241 4568 1842 6496 8541
000000a0: 30d9 3340 0322 5d3f ae4c b140 16a4 9d3f
000000b0: ecd7 a93f e008 bd40 a33a ce3f d2bf e240
000000c0: 25fa c640 623f 6d40 e372 3142 6833 1540
000000d0: 8e61 123f 04d6 0641 af6d d43f 583f 5f40
000000e0: db50 8e3f b7b7 d941 900a c740 fcf0 d140
000000f0: e82f ca3f cac6 8e3f 5d5e 423e 468f 5140
00000100: 8e17 8040 dfc8 e640 9037 1340 3aba 7b40
00000110: e809 0e40 5f0b f13f 703d 2541 8331 8941
00000120: c794 fc40 4e26 5541 42d4 1940 13d9 a53f
00000130: 7ed7 2f40 679c 1040 86d9 5a3f e91f f23f
00000140: 46c6 9041 54c9 b03f d5b0 8c40 4024 e43e
00000150: 77e5 9440 9e84 a440 da36 df41 228e a43f
00000160: 01b4 9c42 ebd8 3540 e155 5c40 f7aa a640
00000170: 5dd6 0840 33c3 db40 1fb7 2041 4146 8641
00000180: 2ac1 fe41 2273 8a3f 059b 0340 282e df3f
00000190: ac61 1141 26b4 e341 92fc 8640 b0df 2341
000001a0: 1639 0e41 7b6f 8e40 e2db 6740 c4c0 4f40
000001b0: 7ce7 bb40 dfc8 bd40 67c8 9a40 e4d3 9c42
000001c0: 1cdb 5d40 b98c 6840 9ce5 3640 c304 c83f
000001d0: d9b2 8e3f d15f ad40 cadf 0940 aa44 3740
000001e0: e6c6 3a41 71da 3e41 650e 0140 36fd 7141
000001f0: bb36 e63f 27ed 7342 70a0 1640 3efa 0540
